cnn_mnist_classifier/mnist_model.pth (torch, 831365 bytes, 8 tensors)

conv1.weight f4 [16, 1, 3, 3]
-0.4574277 -0.26823547 -0.08851812 -0.39475894 0.034361064 0.30418393 0.7140099 0.55416155
-0.1952875 0.07804907 0.10656235 0.0077321674 0.3931773 0.5368818 0.1208305 -0.66178846
-0.47221053 -0.08132402 0.22367322 -0.2118485 -0.32550094 0.7600345 -0.36374214 -0.31899697
0.34672472 0.23980784 -0.097944744 -0.11612209 0.1886507 0.03156413 -0.03421457 -0.40355936
-0.36705178 -0.24026702 -0.13895147 -0.15322848 -0.0055835005 0.1895834 -0.08699284 0.028251281
0.29933938 0.18535292 -0.13378936 -0.38205495 0.2295311 0.20901948 -0.1630797 -0.031292815
0.2147174 0.18000218 0.22909862 -0.07185286 0.11996793 0.0128919715 0.063063286 0.14409132
-0.4428147 -0.031708416 0.05132304 -0.15169552 -0.02574363 0.29072598 0.18991286 -0.22840397
-0.14694516 -0.12876043 -0.07728616 -0.23135425 -0.11620288 0.36998332 0.10795781 -0.047744356
-0.34199896 0.02365674 0.2142635 -0.071168065 -0.1340482 0.2470352 -0.103578664 0.49685898
0.19204096 0.61943495 0.63478994 -0.12620172 0.031142585 -0.34909537 -0.44321886 0.09111637
-0.08380441 -0.14370716 -0.70754725 0.3495005 -0.38487637 0.27994677 0.42968327 0.23557308
-0.18711728 -0.1808435 -0.1048286 0.3039938 -0.27267638 -0.4709225 -0.035659414 0.13841662
0.59252423 0.046241328 -0.3871261 0.11643288 0.10732056 0.2496745 0.088020526 -0.2708805
0.3241436 0.421493 -0.21398464 -0.4727263 0.5881146 0.014396304 0.21377692 0.3827723
0.12849107 -0.094294116 0.13334511 -0.3759107 -0.39723793 0.010195011 0.3117625 -0.3880795
-0.25833163 0.4228064 0.6227599 -0.1887549 -0.58905935 0.18666774 0.31730512 0.07670599
-0.22163405 0.19749027 -0.37610382 -0.37933314 0.23800519 -0.25890377 0.14128864 0.61415535
00000000: f733 eabe 2956 89be fd48 b5bd d81d cabe
00000010: 30be 0c3d ffbd 9b3e 5ac9 363f 88dd 0d3f
00000020: 72f9 47be 31d8 9f3d 5d3d da3d 1f5e fd3b
00000030: 894e c93e 1671 093f fb75 f73d f86a 29bf
00000040: 94c5 f1be 358d a6bd 980a 653e d0ee 58be
00000050: 0fa8 a6be 9f91 423f 693c babe 9253 a3be
00000060: e785 b13e 3090 753e 4197 c8bd 6bd1 edbd
00000070: a62d 413e 6449 013d 9424 0cbd 559f cebe
00000080: 36ee bbbe 8f08 76be 4b49 0ebe ede7 1cbe
00000090: ccf5 b6bb 2722 423e 4d29 b2bd 3b6f e73c
000000a0: 0343 993e 28cd 3d3e 1400 09be b59c c3be
000000b0: 330a 6b3e 3409 563e 5dfe 26be e52c 00bd
000000c0: e1de 5b3e 7e52 383e d498 6a3e 9827 93bd
000000d0: bfb1 f53d d938 533c 5327 813d ad8c 133e
000000e0: 9cb8 e2be afe0 01bd 1c38 523d 1256 1bbe
000000f0: 4ee4 d2bc 09da 943e 8478 423e bbe2 69be
00000100: cb78 16be c6d9 03be 3548 9ebd 21e8 6cbe
00000110: c7fb edbd 746e bd3e fc18 dd3d 968f 43bd
00000120: 7d1a afbe c8cb c13c e467 5b3e 90c0 91bd
00000130: ee43 09be ccf6 7c3e 0d21 d4bd 4d64 fe3e
00000140: 63a6 443e 4a93 1e3f 9881 223f 063b 01be
00000150: bc1e ff3c a1bc b2be 95ed e2be 389b ba3d
00000160: a6a1 abbd f827 13be d121 35bf bbf1 b23e
00000170: 840e c5be 2f55 8f3e 72ff db3e 123a 713e
00000180: ac9b 3fbe 0a2f 39be 61b0 d6bd 13a5 9b3e
00000190: 3d9c 8bbe c11c f1be 9b0f 12bd 16bd 0d3e
000001a0: abaf 173f 8c67 3d3d 6435 c6be 5d74 ee3d
000001b0: e2ca db3d acaa 7f3e 1b44 b43d d9b0 8abe
000001c0: 26f6 a53e eecd d73e ca1e 5bbe 2e09 f2be
000001d0: ae8e 163f 7ade 6b3c 56e8 5a3e bbfa c33e
000001e0: 2a93 033e 461d c1bd 9f8b 083e 5e77 c0be
000001f0: c562 cbbe fa08 273c 569f 9f3e 5bb2 c6be
00000200: 0b44 84be 157a d83e 316d 1f3f f748 41be
00000210: 98cc 16bf d425 3f3e d175 a23e 0818 9d3d
00000220: 09f4 62be e43a 4a3e ae90 c0be f437 c2be
00000230: a2b7 733e 098f 84be f8ad 103e 4939 1d3f

conv1.bias f4 [16]
-0.22320235 -0.16712295 -0.2349902 -0.3505576 -0.29091412 -0.11429834 -0.18619715 -0.17125434
-0.23257253 -0.18295899 -0.3272519 -0.12127178 -0.27925068 -0.112909436 -0.2931718 -0.35153002
00000000: 288f 64be 4722 2bbe 45a1 70be 497c b3be
00000010: b2f2 94be 4015 eabd 77aa 3ebe 4c5d 2fbe
00000020: 7e27 6ebe 9a59 3bbe 908d a7be 575d f8bd
00000030: f2f9 8ebe 103d e7bd 9d1a 96be befb b3be

conv2.weight f4 [32, 16, 3, 3]
-0.066384226 -0.00530338 0.39229015 -0.28908223 -0.19347052 -0.31484517 -0.19951539 -0.09278394
0.18814512 -0.34454682 -0.32323673 -0.042859253 0.054990124 -0.079250015 0.02098971 0.34846836
0.39038634 -0.16194303 0.2787275 0.11366962 -0.14459266 0.0074291397 -0.48571047 -0.18539764
-0.00085365295 -0.14016357 -0.05403478 -0.23485601 -0.46060097 -0.4296092 -0.13002801 -0.19439791
-0.058074344 0.08504863 -0.009982657 -0.08524248 -0.15135063 -0.090067185 -0.1350599 0.11807386
-0.08517871 0.029905701 0.11164925 0.2169487 -0.028254258 0.1081051 -0.0644914 0.04043666
0.1424919 0.15648165 -0.0035413732 -0.29978007 -0.07743627 0.011383238 0.07450296 0.23035957
0.022531174 0.17067103 0.05830852 -0.096052825 -0.33216375 -0.29680693 -0.03328072 -0.23950544
-0.081630856 -0.09769165 -0.3928247 -0.4678901 -0.40330553 -0.009850462 -0.018677989 -0.08439783
0.1340503 0.024048025 0.15332161 -0.178945 0.0017891328 -0.05365133 -0.46568137 -0.3233439
0.19835219 0.049459893 0.18228671 -0.13956806 -0.34899947 -0.059636995 0.23260184 0.0674395
0.1466816 -0.14973696 2.447476e-05 -0.04578937 0.32320815 0.03245651 -0.2252028 -0.06309424
-0.15977494 0.12528962 -0.15583484 -0.0060225427 0.17757729 0.06286273 0.13631995 -0.19258003
-0.13554963 -0.17134026 0.020615943 0.0046255635 0.04037242 -0.076011516 -0.05010195 0.2724482
-0.1938486 -0.07871972 -0.08644597 0.08669202 0.24071643 -0.10154812 -0.18044975 -0.34689096
0.035291728 0.13201709 0.11419424 0.23178782 0.10112828 -0.12647924 0.018289635 0.10514801
-0.08191688 0.19380759 0.09035362 -0.16829288 -0.114854075 -0.01891022 -0.11748299 0.017119646
0.1818858 0.18267523 -0.22694866 -0.38620186 -0.42722586 -0.13227005 0.0120749315 0.4565695
-0.0443737 -0.07864494 0.3117641 -0.069451444 -0.5743799 -0.22830275 -0.3089507 0.21233836
0.24401058 -0.15395254 -0.04785365 0.27598685 0.24679601 0.10877417 0.14822388 0.2203078
-0.40576544 -0.3368942 -0.18684117 0.17989376 -0.029727984 -0.12343852 -0.46904707 -0.06315448
-0.304266 -0.16023658 0.39057615 -0.18228781 -0.43458894 -0.14849012 -0.06710639 -0.14865637
-0.15842724 0.042622365 -0.23369782 -0.29427397 -0.019823799 -0.0194278 0.15159935 -0.023485955
0.18784188 0.08452862 -0.06501799 -0.28749228 -0.30155942 0.12226567 0.1230267 0.027636291
0.033102095 0.013516356 0.071456335 -0.5578161 -0.2133823 -0.17912816 0.045904443 0.40797353
0.20070945 0.022536622 0.06537823 -0.13474146 -0.5548122 -0.20143141 -0.21357779 -0.24968074
-0.15774852 0.14733666 -0.2577607 -0.24401654 -0.059976127 -0.33896214 -0.12594686 -0.057382368
-0.00662288 -0.25335124 -0.19529887 -0.16544254 -0.24596988 -0.15347888 -0.016057495 0.16507585
0.22753508 0.13320275 -0.027351296 0.02630467 -0.016082712 0.011658912 -0.03150253 0.21338534
-0.23310558 0.12994766 -0.007264305 0.08875558 0.31786862 -0.00087471324 -0.34532368 -0.37070572
-0.060689963 0.06703181 -0.021839553 -0.073837586 0.17555642 0.16946198 -0.3407684 -0.14709713
-0.07532541 0.4337899 0.3040887 -0.33233258 0.09182175 -0.055212714 -0.098501705 -0.2692539
00000000: 74f4 87bd fac7 adbb 41da c83e 9602 94be
00000010: 231d 46be 6333 a1be c34d 4cbe 8205 bebd
00000020: 1da9 403e 7168 b0be 497f a5be 2f8d 2fbd
00000030: 533d 613d d54d a2bd 9df2 ab3c 726a b23e
00000040: b8e0 c73e 65d4 25be 5fb5 8e3e 9ecb e83d
00000050: 1910 14be 2470 f33b 0baf f8be e1d8 3dbe
00000060: aec7 5fba 0a87 0fbe 9353 5dbd 187e 70be
00000070: e4d3 ebbe bdf5 dbbe 1026 05be 3f10 47be
00000080: 5ddf 6dbd fa2d ae3d 4c8e 23bc 9c93 aebd
00000090: a9fb 1abe 2575 b8bd 244d 0abe b5d0 f13d
000000a0: 2d72 aebd cdfc f43c 5da8 e43d cd27 5e3e
000000b0: 7975 e7bc 3566 dd3d 1114 84bd e9a0 253d
000000c0: 66e9 113e ba3c 203e 6216 68bb c67c 99be
000000d0: e896 9ebd c380 3a3c 0295 983d 61e3 6b3e
000000e0: 4c93 b83c 63c4 2e3e ead4 6e3d 58b7 c4bd
000000f0: 5e11 aabe 14f7 97be 5d51 08bd ea40 75be
00000100: 142e a7bd 8f12 c8bd 5220 c9be 4b8f efbe
00000110: 107e cebe d563 21bc 9502 99bc c5d8 acbd
00000120: 7b44 093e 5d00 c53c 5700 1d3e 5c3d 37be
00000130: 5681 ea3a 7fc1 5bbd ca6d eebe 558d a5be
00000140: d61c 4b3e 7596 4a3d 5ea9 3a3e eeea 0ebe
00000150: 0fb0 b2be ec45 74bd 2d2f 6e3e b81d 8a3d
00000160: b433 163e a554 19be 264f cd37 a28d 3bbd
00000170: 8a7b a53e 1ef1 043d 909b 66be 8e37 81bd
00000180: 0b9c 23be ec4b 003e 2b93 1fbe c058 c5bb
00000190: d2d6 353e 2dbe 803d 7597 0b3e b333 45be
000001a0: 86cd 0abe d273 2fbe c4e2 a83c 0a92 973b
000001b0: 8d5d 253d edab 9bbd b437 4dbd 557e 8b3e
000001c0: 3f80 46be ce37 a1bd 960a b1bd 968b b13d
000001d0: 5e7e 763e 76f8 cfbd d2c7 38be b19b b1be
000001e0: 0f8e 103d 7d2f 073e abde e93d c959 6d3e
000001f0: 581c cf3d c683 01be 25d4 953c d757 d73d
00000200: 0ac4 a7bd 7f75 463e 520b b93d f854 2cbe
00000210: 9d38 ebbd 9be9 9abc ec9a f0bd 803e 8c3c
00000220: 4540 3a3e 370f 3b3e 3b65 68be 40bc c5be
00000230: 59bd dabe cd71 07be efd5 453c 7ac3 e93e
00000240: 32c1 35bd 9910 a1bd 8b9f 9f3e 8f3c 8ebd
00000250: 900a 13bf 32c8 69be c92e 9ebe 3a6f 593e
00000260: e9dd 793e bca5 1dbe 3002 44bd 264e 8d3e
00000270: 18b8 7c3e fec4 de3d 00c8 173e 5e98 613e
00000280: 7dc0 cfbe 667d acbe 4b53 3fbe 1236 383e
00000290: 1a88 f3bc 56cd fcbd f026 f0be 2357 81bd
000002a0: c1c8 9bbe 0f15 24be 99f9 c73e a8a9 3abe
000002b0: 7182 debe cb0d 18be 136f 89bd 6039 18be
000002c0: c03a 22be ca94 2e3d 7b4e 6fbe 14ab 96be
000002d0: 8565 a2bc 0d27 9fbc dc3c 1b3e 9e65 c0bc
000002e0: 9f59 403e 571d ad3d 2728 85bd 3032 93be
000002f0: ff65 9abe 6c66 fa3d 6cf5 fb3d 8165 e23c
00000300: 1096 073d b573 5d3c b357 923d 09cd 0ebf
00000310: e480 5abe 5f6d 37be 4c06 3c3d e8e1 d03e
00000320: c786 4d3e b99e b83c 05e5 853d aaf9 09be
00000330: 2c08 0ebf 0944 4ebe 23b4 5abe 4fac 7fbe
00000340: d488 21be 6cdf 163e 36f9 83be 79df 79be
00000350: 87a9 75bd 728c adbe 37f8 00be c609 6bbd
00000360: bf04 d9bb 41b7 81be 6dfc 47be c569 29be
00000370: 87df 7bbe 9129 1dbe 028b 83bc a509 293e
00000380: f5fe 683e 4d66 083e d30f e0bc e47c d73c
00000390: e4bf 83bc 0505 3f3c cc08 01bd b081 5a3e
000003a0: 3bb3 6ebe 0011 053e 6809 eebb 7cc5 b53d
000003b0: adbf a23e 034d 65ba 44ce b0be 24cd bdbe
000003c0: 0a96 78bd f947 893d dde8 b2bc 2938 97bd
000003d0: 10c5 333e 7187 2d3e 3279 aebe a1a0 16be
000003e0: 3544 9abd b619 de3e 84b1 9b3e 7f27 aabe
000003f0: 0b0d bc3d ba26 62bd 43bb c9bd a6db 89be

conv2.bias f4 [32]
-0.1631776 -0.12372546 -0.22258152 -0.16289522 -0.19470961 -0.259831 -0.23944736 -0.023208898
-0.25151625 -0.12026645 -0.08004705 -0.13750598 -0.07468725 -0.037581384 -0.1771392 -0.21799792
-0.11181323 -0.24034077 -0.1075843 -0.2618235 -0.07189364 -0.0013808565 -0.17543806 -0.17084841
-0.19661832 -0.14869522 -0.14953417 -0.19917613 -0.1768297 -0.104191884 -0.30538818 0.043550707
00000000: 0718 27be c663 fdbd 69ec 63be 01ce 26be
00000010: f561 47be 9208 85be b031 75be 9620 bebc
00000020: bdc6 80be 424e f6bd b5ef a3bd 5ece 0cbe
00000030: a1f5 98bd f0ee 19bd fa63 35be d93a 5fbe
00000040: 56fe e4bd e41b 76be 2855 dcbd bb0d 86be
00000050: f93c 93bd dbfd b4ba 09a6 33be e3f2 2ebe
00000060: 5056 49be 8f43 18be 7c1f 19be d4f4 4bbe
00000070: d812 35be 8e62 d5bd d75b 9cbe 3a62 323d

fc1.weight f4 [128, 1568]
-0.024491 -0.0011137042 -0.030004252 -0.01954329 -0.026742283 -0.008071625 -0.03295285 0.020258473
0.0011672528 0.02372481 -0.02474051 -0.0037178053 0.008274205 0.006335719 0.022322724 0.030040815
-0.012059937 0.010914395 0.01965293 -0.014446033 -0.000853018 -0.004733924 -0.014496254 -0.034969766
-0.029883709 -0.016268685 0.009457475 -0.0007250261 0.010051271 -0.015721718 0.008231377 0.006607398
0.02053246 -0.036818866 -0.008521307 -0.003884647 0.000948583 0.009111422 -0.02253238 -0.0034736118
0.015528211 0.034316387 -0.022783691 -0.023677642 0.0015194376 0.018042838 -0.0009861635 -7.919229e-05
0.0072257905 -0.01649491 0.009497614 -0.026903328 -0.020892391 -0.033036724 -0.027619531 0.018418131
-0.027251214 0.017367952 0.023121003 -0.017876979 -0.018676313 -0.022644743 -0.012828064 -0.026090302
0.030706728 0.028703181 -0.014216484 -0.022641636 0.008759159 0.014479605 -0.007855124 0.011117437
-0.0015053935 0.024642134 0.0076651513 -0.013586499 -0.0058596786 -0.028461585 -0.0071676276 0.0010359355
0.008018363 0.017582979 -0.022485891 -0.014377205 -0.033816777 0.0038564207 0.015106085 -0.0013373783
0.009186396 0.003455002 -0.015525493 0.013972207 0.019840855 0.022484662 -0.015359078 0.009797483
-0.01125983 0.008816875 -0.00610532 0.010679132 -0.0033116285 -0.027880728 -0.029107163 -0.02909944
-0.020171322 -0.016743816 0.034702785 -0.013361938 0.0075987 -0.004188441 -0.009745319 -0.0013615105
0.0009848338 0.0340532 0.012789746 0.012759259 -0.0039243638 0.0055118785 0.006591811 -0.02084921
0.0058649695 0.0052564237 -0.0065333215 -0.00037077922 -0.026858242 -0.010656629 -0.025239943 0.000114252114
-0.036863845 -0.03440901 -0.016499091 -0.009698223 -0.021604933 -0.011129534 0.0025183873 0.008646
-0.005171452 -0.024367752 0.017873205 0.025463939 -0.035616644 -0.006306447 -0.007977297 0.02033635
-0.019753989 0.034610115 -0.020369848 -0.021164684 0.011523488 -0.03410784 -0.031679634 -0.016576601
0.012610998 0.014727187 -0.028578807 0.0022520483 -0.021084238 -0.035139225 0.010585825 -0.020471053
-0.011946879 -0.030367205 0.011824814 -0.02520358 -0.004887053 -0.01938444 0.021597624 0.017382873
0.0070197363 -0.029858684 0.011203522 -0.00956389 -0.038134597 -0.02947431 -0.0021591224 -0.0010638175
-0.028591692 -0.005177747 0.0038194584 0.005919257 0.003794476 0.012708317 -0.008561738 0.019057741
0.0117546 -0.0124176955 -0.0049741077 0.013859714 0.0073001813 -0.02556274 0.009214375 -0.023710202
-0.0065014646 -0.005434691 -0.022432707 -0.005395554 -0.028411865 0.004589355 0.003127374 0.010972479
-0.012847558 0.0050547053 -0.005136487 -0.026635395 -0.0011003751 -0.00018722929 0.015753841 -0.010013356
0.01386902 -0.023904203 -0.033899613 -0.014646344 0.0057267617 -0.0029564733 -0.030459387 0.00824461
0.0035858687 0.011545756 0.027931187 0.026687458 0.015393703 -0.00786931 -0.024574244 -0.021275666
0.0074031577 -0.0038479534 0.022299128 0.020682795 0.0066992017 -0.007090593 -0.010702794 0.0047829635
0.0032589934 -0.020206472 0.009479979 0.010062941 -0.0030389258 -0.030231379 -0.016014062 0.012950921
-0.03220145 0.010384618 -0.014135309 0.0070319553 -0.00787807 0.0027220703 -0.01231141 -0.0046989857
0.004664208 -0.016605401 -0.014645377 -0.017437436 0.0031407527 -0.0015481128 0.0112027265 0.011938016
00000000: 5aa1 c8bc b6f9 91ba 7acb f5bc 4019 a0bc
00000010: a212 dbbc d93e 04bc 91f9 06bd 19f5 a53c
00000020: 81fe 983a 885a c23c 9cac cabc 6ca6 73bb
00000030: 8890 073c dd9b cf3b 25de b63c 2818 f63c
00000040: 0b97 45bc 4ad2 323c 2eff a03c 0eaf 6cbc
00000050: 129d 5fba 081f 9bbb b281 6dbc 753c 0fbd
00000060: aece f4bc e845 85bc 86f3 1a3c ae0f 3eba
00000070: 16ae 243c d5ca 80bc e6dc 063c df82 d83b
00000080: b133 a83c 61cf 16bd f49c 0bbc 9095 7ebb
00000090: 54aa 783a 1348 153c d395 b8bc 89a5 63bb
000000a0: 0a6a 7e3c 578f 0c3d dda4 babc 9df7 c1bc
000000b0: de27 c73a 93ce 933c 2842 81ba 0914 a6b8
000000c0: 53c6 ec3b 5520 87bc e19b 1b3c 5e64 dcbc
000000d0: 8526 abbc 8451 07bd 5b42 e2bc 9fe1 963c
000000e0: f03d dfbc 3c47 8e3c 4268 bd3c be72 92bc
000000f0: 11ff 98bc 7881 b9bc cd2c 52bc 54bb d5bc
00000100: ad8c fb3c ef22 eb3c 41ec 68bc f47a b9bc
00000110: 9382 0f3c dd3b 6d3c c7b2 00bc e925 363c
00000120: a050 c5ba 4dde c93c f32b fb3b e899 5ebc
00000130: 8c02 c0bb 4528 e9bc 6bde eabb 3ac8 873a
00000140: 745f 033c 2e0a 903c 5534 b8bc 5e8e 6bbc
00000150: 7683 0abd 01bc 7c3b 837f 773c f84a afba
00000160: 8a82 163c 516d 623b a35e 7ebc afeb 643c
00000170: 4a89 a23c c131 b83c a4a4 7bbc 9f85 203c
00000180: 267b 38bc a774 103c 230f c8bb 87f7 2e3c
00000190: e807 59bb 2066 e4bc 2572 eebc f361 eebc
000001a0: 543e a5bc 542a 89bc 8224 0e3d 08ec 5abc
000001b0: 84fe f83b 313f 89bb d5aa 1fbc b674 b2ba
000001c0: 8a15 813a 5e7b 0b3d 158c 513c 360c 513c
000001d0: f397 80bb fd9c b43b 1e00 d83b f6cb aabc
000001e0: ee2e c03b 143e ac3b 7915 d6bb 2565 c2b9
000001f0: d105 dcbc 2499 2ebc ffc3 cebc a39a ef38
00000200: 8bfe 16bd 76f0 0cbd 1a29 87bc 4ce5 1ebc
00000210: d4fc b0bc a658 36bc 870b 253b f4a7 0d3c
00000220: 4975 a9bb e19e c7bc d46a 923c c099 d03c
00000230: c2e2 11bd 50a6 cebb 35b3 02bc 6b98 a63c
00000240: 1ed3 a1bc 56c3 0d3d abde a6bc 8f61 adbc
00000250: 03cd 3c3c aab4 0bbd 81c2 01bd a7cb 87bc
00000260: 5c9e 4e3c 4d4a 713c 1a1e eabc 1a97 133b
00000270: dab8 acbc 26ee 0fbd 2b70 2d3c e9b2 a7bc
00000280: d8bc 43bc a5c4 f8bc ddbc 413c bd77 cebc
00000290: 9223 a0bb 1ecc 9ebc 80ed b03c 8766 8e3c
000002a0: d105 e63b 339a f4bc fa8e 373c ddb1 1cbc
000002b0: 0633 1cbd 1c74 f1bc 1080 0dbb cb6f 8bba
000002c0: 2039 eabc 17aa a9bb e14f 7a3b 54f6 c13b
000002d0: beac 783b 8b36 503c 8846 0cbc fb1e 9c3c
000002e0: 5e96 403c 9773 4bbc d7fd a2bb db13 633c
000002f0: 5c36 ef3b f468 d1bc e4f7 163c e63b c2bc
00000300: 3d0a d5bb 7e15 b2bb ccc4 b7bc 30cd b0bb
00000310: 00c0 e8bc 4d62 963b a1f4 4c3b eac5 333c
00000320: 907e 52bc f1a1 a53b fa4f a8bb 7932 dabc
00000330: 763a 90ba fb52 44b9 330e 813c 0f0f 24bc
00000340: e33a 633c bfd2 c3bc 52da 0abd 38f7 6fbc
00000350: 8fa7 bb3b 64c1 41bb f785 f9bc 6714 073c
00000360: e500 6b3b 692a 3d3c f2cf e43c a89f da3c
00000370: df35 7c3c 47ee 00bc ed4f c9bc 4e4a aebc
00000380: 3096 f23b f22d 7cbb a9ac b63c f76e a93c
00000390: fa84 db3b 3558 e8bb c65a 2fbc 68ba 9c3b
000003a0: d694 553b 0b88 a5bc ea51 1b3c 09df 243c
000003b0: b728 47bb cca7 f7bc ec2f 83bc 1a30 543c
000003c0: abe5 03bd 3f24 2a3c c897 67bc 516c e63b
000003d0: 0513 01bc c364 323b ccb5 49bc f3f9 99bb
000003e0: 36d6 983b 0d08 88bc 2af3 6fbc f4d8 8ebc
000003f0: 16d5 4d3b 0cea caba a48b 373c ab97 433c

fc1.bias f4 [128]
0.01011963 -0.11108704 -0.112618096 -0.10063739 -0.056087434 0.022946805 -0.019663142 -0.10010481
-0.004990884 -0.090841465 -0.029184224 0.09764069 -0.10368237 0.021774737 0.0009906844 -0.059940167
-0.03673018 -0.077682704 -0.048296046 -0.034067363 0.19497256 0.13271761 -0.05020545 -0.0421991
0.0059579536 -0.033008642 -0.022224354 -0.020634001 -0.024094848 -0.020562185 -0.059818782 0.0076737907
-0.016691446 -0.11528005 0.01188871 -0.03772272 0.004539703 0.013987856 -0.0088767065 -0.037518244
-0.10625313 -0.032217354 -0.0157304 -0.008531754 -0.056727696 0.0021223582 -0.0071303253 -0.1489478
0.06530798 -0.009722569 -0.07820441 0.0071266033 0.057184044 -0.012429383 -0.03454072 0.0078433445
-0.0036366747 -0.13276723 -0.06317681 -0.10380196 -0.09037051 -0.14142652 0.054238517 0.015020753
-0.08559794 0.030368226 0.034911413 0.083922796 -0.006443349 -0.08897575 0.011643966 -0.08441068
-0.031758443 -0.12303712 -0.020835506 -0.07372474 0.112240426 -0.052445818 -0.1370208 -0.0072078193
-0.081435904 -0.08544037 0.03726267 0.0028969839 0.08447813 -0.10021202 -0.16934311 -0.032952633
-0.14902413 -0.15056345 -0.053657714 -0.105216146 -0.10716041 -0.025587795 -0.016843626 0.039099306
-0.032223698 -0.036066744 0.0018610108 -0.07024546 -0.054936748 0.006050144 -0.106243394 -0.028288845
-0.12636094 -0.036422286 0.0724013 -0.05187581 -0.028263059 -0.11117806 -0.04400655 -0.06807977
0.11103518 -0.04114201 0.008801692 0.04390379 -0.091457315 -0.0012537865 -0.040963907 -0.060701746
-0.022078484 -0.01613794 -0.0013989526 -0.14562882 0.05584393 0.04628696 0.008385646 0.0032169418
00000000: cecc 253c 9a81 e3bd 51a4 e6bd fa1a cebd
00000010: f0bb 65bd f0fa bb3c 9914 a1bc c003 cdbd
00000020: 928a a3bb 170b babd c113 efbc d8f7 c73d
00000030: 6c57 d4bd ef60 b23c dad9 813a d283 75bd
00000040: 6372 16bd 1c18 9fbd 13d2 45bd 388a 0bbd
00000050: e3a6 473e 20e7 073e 3ba4 4dbd f7d8 2cbd
00000060: f03a c33b 1234 07bd d90f b6bc a308 a9bc
00000070: 8f62 c5bc 0772 a8bc 8a04 75bd 6c74 fb3b
00000080: 80bc 88bc f217 ecbd ddc8 423c 2483 1abd
00000090: cac1 943b 522d 653c 9b6f 11bc bbac 19bd
000000a0: 3e9b d9bd 58f6 03bd 0add 80bc c5c8 0bbc
000000b0: 4d5b 68bd 4317 0b3b 81a5 e9bb c685 18be
000000c0: 31c0 853d 694b 1fbc a229 a0bd 4886 e93b
000000d0: d139 6a3d 9ca4 4bbc 927a 0dbd 5f81 003c
000000e0: 4755 6ebb 22f4 07be d862 81bd 1f96 d4bd
000000f0: 2d14 b9bd 1dd2 10be 3529 5e3d 9b19 763c
00000100: f94d afbd c9c6 f83c 45ff 0e3d b7df ab3d
00000110: bb22 d3bb eb38 b6bd 55c6 3e3c 82df acbd
00000120: 2415 02bd e3fa fbbd 39af aabc fffc 96bd
00000130: 4fde e53d 6dd1 56bd 2e4f 0cbe 922f ecbb
00000140: dec7 a6bd 5cfb aebd bea0 183d 53db 3d3b
00000150: df02 ad3d f63b cdbd 4868 2dbe 57f9 06bd
00000160: c899 18be 4e2d 1abe 31c8 5bbd 907b d7bd
00000170: eb76 dbbd 7f9d d1bc a5fb 89bc 9826 203d
00000180: fffc 03bd b9ba 13bd 29ed f33a dadc 8fbd
00000190: 5b05 61bd 4940 c63b 2396 d9bd 02be e7bc
000001a0: c364 01be 892f 15bd 2247 943d bb7b 54bd
000001b0: ee87 e7bc 53b1 e3bd 3640 34bd 686d 8bbd
000001c0: 6a66 e33d 8684 28bd f934 103c 76d4 333d
000001d0: f94d bbbd 1856 a4ba c5c9 27bd 65a2 78bd
000001e0: f0dd b4bc b733 84bc 0f5d b7ba b91f 15be
000001f0: 9bbc 643d 6597 3d3d f363 093c 54d3 523b

fc2.weight f4 [10, 128]
-0.0146315135 0.08701114 0.20069078 0.011950918 -0.049174625 0.2291164 0.0041436576 -0.060739223
-0.238017 0.06731396 0.075868316 -0.17678702 0.015605882 -0.39977008 -0.102249034 -0.19942746
-0.03244346 0.12635706 -0.3947394 -0.030127117 -0.17577513 -0.037370212 -0.16094747 -0.061057646
0.019773647 -0.00073471945 0.008286488 0.06840123 0.013662892 -0.49992836 0.026617933 0.096137255
-0.27043077 -0.0032963725 -0.000176553 -0.515338 -0.014802381 -0.3459685 0.17527507 -0.043250807
0.08688114 -0.3394952 -0.104925014 -0.3270061 0.1465715 0.034836292 0.021436887 -0.07122
0.19603664 0.08206077 -0.0019500554 0.08044202 -0.16398264 0.1636756 -0.26779437 -0.025036389
0.13150589 0.07384828 0.032425802 -0.279001 0.029033918 -0.3562747 -0.60835284 -0.2671195
-0.029814677 0.17310272 0.016053373 0.0730301 -0.032805175 -0.50504285 -0.10303183 0.09128451
-0.08328467 -0.33157045 0.020043686 0.31879216 0.14136131 -0.27639875 -0.042539913 0.01599223
-0.3197535 0.045182202 0.22187969 0.07216403 0.0061534857 -0.02985344 -0.49271506 0.06538327
-0.01921018 -0.4318677 -0.41327682 -0.29861212 0.119650796 -0.023855517 0.027324498 0.1267267
-0.027864352 -0.45865723 0.026444545 -0.08449058 -0.008196361 0.04897996 0.10562514 -0.06234992
0.15609123 -0.03433461 -0.17170988 0.09254885 -0.08983075 -0.15542988 -0.22887722 -0.06810793
-0.28905675 -0.4597531 0.13414824 0.223998 -0.15708615 0.021505691 -0.05386174 -0.4156102
-0.14098965 -0.044245 -0.026040828 -0.21566889 0.18699305 0.41176945 0.03896009 0.018285517
-0.031454038 -0.103210226 -0.022953091 -0.038944706 -0.07621225 0.13386595 0.06579553 0.04733531
-0.26585975 -0.5341743 -0.07185509 0.094578415 -0.49721327 0.0660957 -0.22442095 0.3769687
0.0031724048 -0.42155984 0.19046894 -0.24559325 0.09569749 0.07568669 0.38794568 -0.00849043
0.02996237 -0.04166601 -0.01800771 0.038851645 0.030635558 0.104398586 -0.250253 -0.43015018
0.0028080652 -0.074055985 0.005745494 -0.33251747 -0.015947612 -0.27819636 0.0063555334 0.053525798
-0.32650375 -0.1526695 0.042234454 -0.124999486 -0.45890108 -0.05925064 0.022087328 -0.066124216
0.17436405 0.048759047 0.039545532 -0.028191527 0.0037661507 -0.29538763 0.13613532 0.18251942
0.13821086 -0.42152536 -0.0128012 -0.2726975 -0.03012244 -0.34292352 0.28721622 0.05756991
-0.4336144 0.06756569 0.0346371 0.12476772 -0.0765737 -0.09362892 0.087081544 -0.23165494
0.2744071 -0.19977961 -0.12759335 0.26538464 0.46249372 0.16657323 -0.19380918 -0.07739487
-0.17755306 -0.34560466 -0.46171328 0.080441706 0.08709547 -0.07346598 -0.19627172 -0.029460337
0.025751313 -0.40262008 -0.05359117 -0.17103799 -0.7402881 0.017080136 -0.028374046 -0.011388536
0.0607386 0.0929773 -0.07503619 -0.27167585 -0.025625188 -0.08412735 -0.04907487 0.018261075
-0.44675773 0.043255474 0.10567486 -0.103258945 -0.020739106 0.20147456 -0.25777075 -0.002743174
0.14744884 0.16097713 0.11343655 0.1441447 0.027095022 -0.0053006182 0.14048216 -0.13720055
-0.11481911 -0.05197123 -0.029259685 -0.20367804 -0.12977736 0.119541705 0.026772222 0.0024648057
00000000: 04b9 6fbc e632 b23d e281 4d3e c8cd 433c
00000010: 556b 49bd 7d9d 6a3e 85c7 873b b1c9 78bd
00000020: baba 73be e7db 893d d960 9b3d a807 35be
00000030: d0af 7f3c aaae ccbe f167 d1bd b636 4cbe
00000040: 6fe3 04bd bf63 013e 481b cabe 25cd f6bc
00000050: 65fe 33be 8211 19bd 6acf 24be 9517 7abd
00000060: 58fc a13c 309a 40ba 0dc4 073c f215 8c3d
00000070: 53da 5f3c 9cf6 ffbe da0d da3c 9ce3 c43d
00000080: e775 8abe f407 58bb 1621 39b9 31ed 03bf
00000090: b085 72bc c922 b1be 4f7b 333e c227 31bd
000000a0: bdee b13d 51d2 adbe ede2 d6bd 586d a7be
000000b0: d716 163e 80b0 0e3d 699c af3c cbdb 91bd
000000c0: d4bd 483e 7a0f a83d 0099 ffba c9be a43d
000000d0: 11eb 27be 949a 273e 581c 89be 1d19 cdbc
000000e0: 7ba9 063e c43d 973d ebd0 043d 38d9 8ebe
000000f0: 8ad8 ed3c a369 b6be 03bd 1bbf e3c3 88be
00000100: e93d f4bc d741 313e 5d82 833c ce90 953d
00000110: b85e 06bd 7d4a 01bf 5a02 d3bd 60f3 ba3d
00000120: 2791 aabd 9ac3 a9be a832 a43c ba38 a33e
00000130: 05c1 103e 2384 8dbe 553e 2ebd 2302 833c
00000140: bbb6 a3be f910 393d 6e34 633e bcca 933d
00000150: 2ea3 c93b 348f f4bc 2645 fcbe aae7 853d
00000160: ab5e 9dbc c31d ddbe 0599 d3be b0e3 98be
00000170: 7a0b f53d a56c c3bc a0d7 df3c a5c4 013e
00000180: c843 e4bc 1fd5 eabe 3ba2 d83c 6609 adbd
00000190: 084a 06bc 369f 483d fe51 d83d a162 7fbd
000001a0: 61d6 1f3e 73a2 0cbd b7d4 2fbe 408a bd3d
000001b0: 2ff9 b7bd 0329 1fbe ca5e 6abe 2c7c 8bbd
000001c0: 3fff 93be c264 ebbe 285e 093e bb5f 653e
000001d0: 31db 20be b42c b03c 219e 5cbd dcca d4be
000001e0: 975f 10be 3f3a 35bd 9353 d5bc 4ed8 5cbe
000001f0: 1b7b 3f3e 72d3 d23e 9e94 1f3d 82cb 953c
00000200: f3d5 00bd e25f d3bd 1f08 bcbc 7c84 1fbd
00000210: 2b15 9cbd 2814 093e cfbf 863d ace2 413d
00000220: c51e 88be a6bf 08bf c328 93bd 54b2 c13d
00000230: bd92 febe 2f5d 873d 9bce 65be 0b02 c13e
00000240: 1fe8 4f3b b1d6 d7be 4a0a 433e cc7c 7bbe
00000250: 0cfd c33d a001 9b3d d1a0 c63e 721b 0bbc
00000260: a573 f53c faa9 2abd e884 93bc e722 1f3d
00000270: 6cf7 fa3c edce d53d 2921 80be a53c dcbe
00000280: 8407 383b aaaa 97bd b244 bc3b bb3f aabe
00000290: 91a4 82bc c16f 8ebe 1442 d03b de3d 5b3d
000002a0: 802b a7be 6555 1cbe 09fe 2c3d bbff ffbd
000002b0: 15f5 eabe cdb0 72bd 7cf0 b43c 226c 87bd
000002c0: 7d8c 323e 91b7 473d 7ffa 213d ebf1 e6bc
000002d0: 86d1 763b 0c3d 97be 0f67 0b3e 5fe6 3a3e
000002e0: 2687 0d3e 2cd2 d7be 20bc 51bc 029f 8bbe
000002f0: 56c3 f6bc ac93 afbe 010e 933e 6dce 6b3d
00000300: b502 debe e15f 8a3d a2df 0d3d 3886 ff3d
00000310: acd2 9cbd 85c0 bfbd cf57 b23d f436 6dbe
00000320: 167f 8c3e 0793 4cbe d5a7 02be 7fe0 873e
00000330: facb ec3e 2c92 2a3e ea75 46be 3481 9ebd
00000340: 78d0 35be 18f3 b0be af65 ecbe 9fbe a43d
00000350: 1c5f b23d 5575 96bd 74fb 48be ce56 f1bc
00000360: 6bf4 d23c 3824 cebe 6a82 5bbd 9524 2fbe
00000370: 8583 3dbf a4eb 8b3c b070 e8bc fb96 3abc
00000380: 0ac9 783d e26a be3d 93ac 99bd 1919 8bbe
00000390: eaeb d1bc f64a acbd bb02 49bd 4098 953c
000003a0: 6ebd e4be a72c 313d 106c d83d 6d79 d3bd
000003b0: 0fe5 a9bc 594f 4e3e 87fa 83be d3c6 33bb
000003c0: d4fc 163e 30d7 243e 6c51 e83d ab9a 133e
000003d0: 61f6 dd3c cfb0 adbb 8eda 0f3e 4d7e 0cbe
000003e0: 4826 ebbd c9df 54bd 02b2 efbc fa90 50be
000003f0: 5be4 04be 48d2 f43d 6b51 db3c 9488 213b

fc2.bias f4 [10]
-0.11171458 0.11815227 -0.06943608 0.04820335 0.06341502 -0.038015604 -0.14548682 -0.025634266
0.028977674 -0.07802314
00000000: 9dca e4bd d1f9 f13d 8134 8ebd e070 453d
00000010: bcdf 813d 40b6 1bbd 7ffa 14be f4fe d1bc
00000020: 9662 ed3c 99ca 9fbd
